…
This module has been installed by CSC and is still experimental and subject to
change. For further information see: https://docs.csc.fi/apps/pytorch/

/scratch/project_462000189/pranav/everything_at_once/lib/python3.10/site-packages/neptune/common/warnings.py:62: NeptuneDeprecationWarning: The 'neptune-client' package has been deprecated and will be removed in the future. Install the 'neptune' package instead. For more, see https://docs.neptune.ai/setup/upgrading/
  warnings.warn(
Config: clip_finetune_msrvtt
EverythingAtOnceModel(
  (fusion): FusionTransformer(
    (blocks): Sequential(
      (0): FusionBlock(
        (norm1): LayerNorm((4096,), eps=1e-06, elementwise_affine=True)
        (attn_cross): CrossAttention_updated(
          (qkv): Linear(in_features=4096, out_features=12288, bias=True)
          (attn_drop): Dropout(p=0.0, inplace=False)
          (proj): Linear(in_features=4096, out_features=4096, bias=True)
          (proj_drop): Dropout(p=0.0, inplace=False)
        )
        (drop_path): Identity()
        (norm2): LayerNorm((4096,), eps=1e-06, elementwise_affine=True)
        (mlp): Mlp(
          (fc1): Linear(in_features=4096, out_features=4096, bias=True)
          (act): GELU(approximate='none')
          (drop1): Dropout(p=0.0, inplace=False)
          (fc2): Linear(in_features=4096, out_features=4096, bias=True)
          (drop2): Dropout(p=0.0, inplace=False)
        )
      )
    )
    (norm): LayerNorm((4096,), eps=1e-06, elementwise_affine=True)
  )
  (fusion_t): FusionTransformer(
    (blocks): Sequential(
      (0): FusionBlock(
        (norm1): LayerNorm((4096,), eps=1e-06, elementwise_affine=True)
        (attn): FusionAttention(
          (qkv): Linear(in_features=4096, out_features=12288, bias=True)
          (attn_drop): Dropout(p=0.0, inplace=False)
          (proj): Linear(in_features=4096, out_features=4096, bias=True)
          (proj_drop): Dropout(p=0.0, inplace=False)
        )
        (drop_path): Identity()
        (norm2): LayerNorm((4096,), eps=1e-06, elementwise_affine=True)
        (mlp): Mlp(
          (fc1): Linear(in_features=4096, out_features=4096, bias=True)
          (act): GELU(approximate='none')
          (drop1): Dropout(p=0.0, inplace=False)
          (fc2): Linear(in_features=4096, out_features=4096, bias=True)
          (drop2): Dropout(p=0.0, inplace=False)
        )
      )
    )
    (norm): LayerNorm((4096,), eps=1e-06, elementwise_affine=True)
  )
  (fusion_v): FusionTransformer(
    (blocks): Sequential(
      (0): FusionBlock(
        (norm1): LayerNorm((4096,), eps=1e-06, elementwise_affine=True)
        (attn): FusionAttention(
          (qkv): Linear(in_features=4096, out_features=12288, bias=True)
          (attn_drop): Dropout(p=0.0, inplace=False)
          (proj): Linear(in_features=4096, out_features=4096, bias=True)
          (proj_drop): Dropout(p=0.0, inplace=False)
        )
        (drop_path): Identity()
        (norm2): LayerNorm((4096,), eps=1e-06, elementwise_affine=True)
        (mlp): Mlp(
          (fc1): Linear(in_features=4096, out_features=4096, bias=True)
          (act): GELU(approximate='none')
          (drop1): Dropout(p=0.0, inplace=False)
          (fc2): Linear(in_features=4096, out_features=4096, bias=True)
          (drop2): Dropout(p=0.0, inplace=False)
        )
      )
    )
    (norm): LayerNorm((4096,), eps=1e-06, elementwise_affine=True)
  )
  (fusion_a): FusionTransformer(
    (blocks): Sequential(
      (0): FusionBlock(
        (norm1): LayerNorm((4096,), eps=1e-06, elementwise_affine=True)
        (attn): FusionAttention(
          (qkv): Linear(in_features=4096, out_features=12288, bias=True)
          (attn_drop): Dropout(p=0.0, inplace=False)
          (proj): Linear(in_features=4096, out_features=4096, bias=True)
          (proj_drop): Dropout(p=0.0, inplace=False)
        )
        (drop_path): Identity()
        (norm2): LayerNorm((4096,), eps=1e-06, elementwise_affine=True)
        (mlp): Mlp(
          (fc1): Linear(in_features=4096, out_features=4096, bias=True)
          (act): GELU(approximate='none')
          (drop1): Dropout(p=0.0, inplace=False)
          (fc2): Linear(in_features=4096, out_features=4096, bias=True)
          (drop2): Dropout(p=0.0, inplace=False)
        )
      )
    )
    (norm): LayerNorm((4096,), eps=1e-06, elementwise_affine=True)
  )
  (video_norm_layer): LayerNorm((4096,), eps=1e-06, elementwise_affine=True)
  (text_norm_layer): LayerNorm((4096,), eps=1e-06, elementwise_affine=True)
  (audio_norm_layer): LayerNorm((4096,), eps=1e-06, elementwise_affine=True)
  (davenet): ResDavenet(
    (batchnorm1): BatchNorm2d(1, eps=1e-05, momentum=0.1, affine=True, track_running_stats=True)
    (conv1): Conv2d(1, 128, kernel_size=(40, 1), stride=(1, 1), bias=False)
    (bn1): BatchNorm2d(128, eps=1e-05, momentum=0.1, affine=True, track_running_stats=True)
    (relu): ReLU(inplace=True)
    (layer1): Sequential(
      (0): SpeechBasicBlock(
        (conv1): Conv2d(128, 128, kernel_size=(1, 9), stride=(2, 2), padding=(0, 4), bias=False)
        (bn1): BatchNorm2d(128, eps=1e-05, momentum=0.1, affine=True, track_running_stats=True)
        (relu): ReLU(inplace=True)
        (conv2): Conv2d(128, 128, kernel_size=(1, 9), stride=(1, 1), padding=(0, 4), bias=False)
        (bn2): BatchNorm2d(128, eps=1e-05, momentum=0.1, affine=True, track_running_stats=True)
        (downsample): Sequential(
          (0): Conv2d(128, 128, kernel_size=(1, 1), stride=(2, 2), bias=False)
          (1): BatchNorm2d(128, eps=1e-05, momentum=0.1, affine=True, track_running_stats=True)
        )
      )
      (1): SpeechBasicBlock(
        (conv1): Conv2d(128, 128, kernel_size=(1, 9), stride=(1, 1), padding=(0, 4), bias=False)
        (bn1): BatchNorm2d(128, eps=1e-05, momentum=0.1, affine=True, track_running_stats=True)
        (relu): ReLU(inplace=True)
        (conv2): Conv2d(128, 128, kernel_size=(1, 9), stride=(1, 1), padding=(0, 4), bias=False)
        (bn2): BatchNorm2d(128, eps=1e-05, momentum=0.1, affine=True, track_running_stats=True)
      )
    )
    (layer2): Sequential(
      (0): SpeechBasicBlock(
        (conv1): Conv2d(128, 256, kernel_size=(1, 9), stride=(2, 2), padding=(0, 4), bias=False)
        (bn1): BatchNorm2d(256, eps=1e-05, momentum=0.1, affine=True, track_running_stats=True)
        (relu): ReLU(inplace=True)
        (conv2): Conv2d(256, 256, kernel_size=(1, 9), stride=(1, 1), padding=(0, 4), bias=False)
        (bn2): BatchNorm2d(256, eps=1e-05, momentum=0.1, affine=True, track_running_stats=True)
        (downsample): Sequential(
          (0): Conv2d(128, 256, kernel_size=(1, 1), stride=(2, 2), bias=False)
          (1): BatchNorm2d(256, eps=1e-05, momentum=0.1, affine=True, track_running_stats=True)
        )
      )
      (1): SpeechBasicBlock(
        (conv1): Conv2d(256, 256, kernel_size=(1, 9), stride=(1, 1), padding=(0, 4), bias=False)
        (bn1): BatchNorm2d(256, eps=1e-05, momentum=0.1, affine=True, track_running_stats=True)
        (relu): ReLU(inplace=True)
        (conv2): Conv2d(256, 256, kernel_size=(1, 9), stride=(1, 1), padding=(0, 4), bias=False)
        (bn2): BatchNorm2d(256, eps=1e-05, momentum=0.1, affine=True, track_running_stats=True)
      )
    )
    (layer3): Sequential(
      (0): SpeechBasicBlock(
        (conv1): Conv2d(256, 512, kernel_size=(1, 9), stride=(2, 2), padding=(0, 4), bias=False)
        (bn1): BatchNorm2d(512, eps=1e-05, momentum=0.1, affine=True, track_running_stats=True)
        (relu): ReLU(inplace=True)
        (conv2): Conv2d(512, 512, kernel_size=(1, 9), stride=(1, 1), padding=(0, 4), bias=False)
        (bn2): BatchNorm2d(512, eps=1e-05, momentum=0.1, affine=True, track_running_stats=True)
        (downsample): Sequential(
          (0): Conv2d(256, 512, kernel_size=(1, 1), stride=(2, 2), bias=False)
          (1): BatchNorm2d(512, eps=1e-05, momentum=0.1, affine=True, track_running_stats=True)
        )
      )
    )
    (layer4): Sequential(
      (0): SpeechBasicBlock(
        (conv1): Conv2d(512, 1024, kernel_size=(1, 9), stride=(2, 2), padding=(0, 4), bias=False)
        (bn1): BatchNorm2d(1024, eps=1e-05, momentum=0.1, affine=True, track_running_stats=True)
        (relu): ReLU(inplace=True)
        (conv2): Conv2d(1024, 1024, kernel_size=(1, 9), stride=(1, 1), padding=(0, 4), bias=False)
        (bn2): BatchNorm2d(1024, eps=1e-05, momentum=0.1, affine=True, track_running_stats=True)
        (downsample): Sequential(
          (0): Conv2d(512, 1024, kernel_size=(1, 1), stride=(2, 2), bias=False)
          (1): BatchNorm2d(1024, eps=1e-05, momentum=0.1, affine=True, track_running_stats=True)
        )
      )
    )
    (layer5): Sequential(
      (0): SpeechBasicBlock(
        (conv1): Conv2d(1024, 2048, kernel_size=(1, 9), stride=(2, 2), padding=(0, 4), bias=False)
        (bn1): BatchNorm2d(2048, eps=1e-05, momentum=0.1, affine=True, track_running_stats=True)
        (relu): ReLU(inplace=True)
        (conv2): Conv2d(2048, 2048, kernel_size=(1, 9), stride=(1, 1), padding=(0, 4), bias=False)
        (bn2): BatchNorm2d(2048, eps=1e-05, momentum=0.1, affine=True, track_running_stats=True)
        (downsample): Sequential(
          (0): Conv2d(1024, 2048, kernel_size=(1, 1), stride=(2, 2), bias=False)
          (1): BatchNorm2d(2048, eps=1e-05, momentum=0.1, affine=True, track_running_stats=True)
        )
      )
    )
    (layer6): Sequential(
      (0): SpeechBasicBlock(
        (conv1): Conv2d(2048, 4096, kernel_size=(1, 9), stride=(2, 2), padding=(0, 4), bias=False)
        (bn1): BatchNorm2d(4096, eps=1e-05, momentum=0.1, affine=True, track_running_stats=True)
        (relu): ReLU(inplace=True)
        (conv2): Conv2d(4096, 4096, kernel_size=(1, 9), stride=(1, 1), padding=(0, 4), bias=False)
        (bn2): BatchNorm2d(4096, eps=1e-05, momentum=0.1, affine=True, track_running_stats=True)
        (downsample): Sequential(
          (0): Conv2d(2048, 4096, kernel_size=(1, 1), stride=(2, 2), bias=False)
          (1): BatchNorm2d(4096, eps=1e-05, momentum=0.1, affine=True, track_running_stats=True)
        )
      )
    )
  )
  (video_token_proj): GatedEmbeddingUnit(
    (fc): Linear(in_features=512, out_features=4096, bias=True)
    (cg): ContextGating(
      (fc): Linear(in_features=4096, out_features=4096, bias=True)
    )
  )
  (text_token_proj): GatedEmbeddingUnit(
    (fc): Linear(in_features=512, out_features=4096, bias=True)
    (cg): ContextGating(
      (fc): Linear(in_features=4096, out_features=4096, bias=True)
    )
  )
  (audio_token_proj): GatedEmbeddingUnit(
    (fc): Linear(in_features=4096, out_features=4096, bias=True)
    (cg): ContextGating(
      (fc): Linear(in_features=4096, out_features=4096, bias=True)
    )
  )
  (video_proj): GatedEmbeddingUnit(
    (fc): Linear(in_features=4096, out_features=6144, bias=True)
    (cg): ContextGating(
      (fc): Linear(in_features=6144, out_features=6144, bias=True)
    )
  )
  (text_proj): GatedEmbeddingUnit(
    (fc): Linear(in_features=4096, out_features=6144, bias=True)
    (cg): ContextGating(
      (fc): Linear(in_features=6144, out_features=6144, bias=True)
    )
  )
  (audio_proj): GatedEmbeddingUnit(
    (fc): Linear(in_features=4096, out_features=6144, bias=True)
    (cg): ContextGating(
      (fc): Linear(in_features=6144, out_features=6144, bias=True)
    )
  )
)
loading projection weights from ./data/GoogleNews-vectors-negative300.bin
KeyedVectors lifecycle event {'msg': 'loaded (3000000, 300) matrix of type float32 from ./data/GoogleNews-vectors-negative300.bin', 'binary': True, 'encoding': 'utf8', 'datetime': '2023-07-18T17:20:01.757495', 'gensim': '4.3.1', 'python': '3.10.6 (main, Nov 14 2022, 16:10:14) [GCC 11.3.0]', 'platform': 'Linux-5.14.21-150400.24.46_12.0.73-cray_shasta_c-x86_64-with-glibc2.35', 'event': 'load_word2vec_format'}
…
